…
=False, save_period=-1, save_txt=False, scale=0.5, seed=0, shear=0.0, show=False, show_boxes=True, show_conf=True, show_labels=True, simplify=True, single_cls=False, source=None, split=val, stream_buffer=False, task=detect, time=None, tracker=botsort.yaml, translate=0.1, val=True, verbose=True, vid_stride=1, visualize=False, warmup_bias_lr=0.1, warmup_epochs=3, warmup_momentum=0.8, weight_decay=0.0005, workers=4, workspace=None\n\n                   from  n    params  module                                       arguments                     \n  0                  -1  1       464  ultralytics.nn.modules.conv.Conv             [3, 16, 3, 2]                 \n  1                  -1  1      4672  ultralytics.nn.modules.conv.Conv             [16, 32, 3, 2]                \n  2                  -1  1      7872  ultralytics.nn.modules.block.ELAN1           [32, 32, 32, 16]              \n  3                  -1  1     18560  ultralytics.nn.modules.block.AConv           [32, 64]                      \n  4                  -1  1     65216  ultralytics.nn.modules.block.RepNCSPELAN4    [64, 64, 64, 32, 3]           \n  5                  -1  1     55488  ultralytics.nn.modules.block.AConv           [64, 96]                      \n  6                  -1  1    145824  ultralytics.nn.modules.block.RepNCSPELAN4    [96, 96, 96, 48, 3]           \n  7                  -1  1    110848  ultralytics.nn.modules.block.AConv           [96, 128]                     \n  8                  -1  1    258432  ultralytics.nn.modules.block.RepNCSPELAN4    [128, 128, 128, 64, 3]        \n  9                  -1  1     41344  ultralytics.nn.modules.block.SPPELAN         [128, 128, 64]                \n 10                  -1  1         0  torch.nn.modules.upsampling.Upsample         [None, 2, 'nearest']          \n 11             [-1, 6]  1         0  ultralytics.nn.modules.conv.Concat           [1]                           \n 12                  -1  1    158112  ultralytics.nn.modules.block.RepNCSPELAN4    [224, 96, 96, 48, 3]          \n 13                  -1  1         0  torch.nn.modules.upsampling.Upsample         [None, 2, 'nearest']          \n 14             [-1, 4]  1         0  ultralytics.nn.modules.conv.Concat           [1]                           \n 15                  -1  1     71360  ultralytics.nn.modules.block.RepNCSPELAN4    [160, 64, 64, 32, 3]          \n 16                  -1  1     27744  ultralytics.nn.modules.block.AConv           [64, 48]                      \n 17            [-1, 12]  1         0  ultralytics.nn.modules.conv.Concat           [1]                           \n 18                  -1  1    150432  ultralytics.nn.modules.block.RepNCSPELAN4    [144, 96, 96, 48, 3]          \n 19                  -1  1     55424  ultralytics.nn.modules.block.AConv           [96, 64]                      \n 20             [-1, 9]  1         0  ultralytics.nn.modules.conv.Concat           [1]                           \n 21                  -1  1    266624  ultralytics.nn.modules.block.RepNCSPELAN4    [192, 128, 128, 64, 3]        \n 22        [15, 18, 21]  1    567187  ultralytics.nn.modules.head.Detect           [1, [64, 96, 128]]            \nYOLOv9t summary: 544 layers, 2,005,603 parameters, 2,005,587 gradients, 7.8 GFLOPs\n\nTransferred 1339/1339 items from pretrained weights\nFreezing layer 'model.22.dfl.conv.weight'\n\u001b[34m\u001b[1mAMP: \u001b[0mrunning Automatic Mixed Precision (AMP) checks...\n\u001b[34m\u001b[1mAMP: \u001b[0mchecks passed âœ…\n\u001b[34m\u001b[1mtrain: \u001b[0mFast image acces
…
